name: "try"
input: "image"
input_shape
{
  dim: 1
  dim: 3
  dim: 227
  dim: 227
}
input: "da_image"
input_shape
{
  dim: 1
  dim: 3
  dim: 224
  dim: 224
}
input: "normalizedboxes"
input_shape
{
  dim: 1
  dim: 6
  dim: 1
  dim: 1
}
input: "sppboxes"
input_shape
{
  dim: 1
  dim: 5
  dim: 1
  dim: 1
}
input: "categids"
input_shape
{
  dim: 1
  dim: 1
  dim: 1
  dim: 1
}
layer {
  name: "conv1_1"
  type: "Convolution"
  bottom: "image"
  top: "conv1_1"
  param {
    lr_mult: 0
    decay_mult: 0
  }
  param {
    lr_mult: 0
    decay_mult: 0
  }
  convolution_param {
    num_output: 64
    pad: 1
    kernel_size: 3
  }
}
layer {
  name: "relu1_1"
  type: "ReLU"
  bottom: "conv1_1"
  top: "conv1_1"
}
layer {
  name: "conv1_2"
  type: "Convolution"
  bottom: "conv1_1"
  top: "conv1_2"
  param {
    lr_mult: 0
    decay_mult: 0
  }
  param {
    lr_mult: 0
    decay_mult: 0
  }
  convolution_param {
    num_output: 64
    pad: 1
    kernel_size: 3
  }
}
layer {
  name: "relu1_2"
  type: "ReLU"
  bottom: "conv1_2"
  top: "conv1_2"
}
layer {
  name: "pool1"
  type: "Pooling"
  bottom: "conv1_2"
  top: "pool1"
  pooling_param {
    pool: MAX
    kernel_size: 2
    stride: 2
  }
}
layer {
  name: "conv2_1"
  type: "Convolution"
  bottom: "pool1"
  top: "conv2_1"
  param {
    lr_mult: 0
    decay_mult: 0
  }
  param {
    lr_mult: 0
    decay_mult: 0
  }
  convolution_param {
    num_output: 128
    pad: 1
    kernel_size: 3
  }
}
layer {
  name: "relu2_1"
  type: "ReLU"
  bottom: "conv2_1"
  top: "conv2_1"
}
layer {
  name: "conv2_2"
  type: "Convolution"
  bottom: "conv2_1"
  top: "conv2_2"
  param {
    lr_mult: 0
    decay_mult: 0
  }
  param {
    lr_mult: 0
    decay_mult: 0
  }
  convolution_param {
    num_output: 128
    pad: 1
    kernel_size: 3
  }
}
layer {
  name: "relu2_2"
  type: "ReLU"
  bottom: "conv2_2"
  top: "conv2_2"
}
layer {
  name: "pool2"
  type: "Pooling"
  bottom: "conv2_2"
  top: "pool2"
  pooling_param {
    pool: MAX
    kernel_size: 2
    stride: 2
  }
}
layer {
  name: "conv3_1"
  type: "Convolution"
  bottom: "pool2"
  top: "conv3_1"
  param {
    lr_mult: 0
    decay_mult: 0
  }
  param {
    lr_mult: 0
    decay_mult: 0
  }
  convolution_param {
    num_output: 256
    pad: 1
    kernel_size: 3
  }
}
layer {
  name: "relu3_1"
  type: "ReLU"
  bottom: "conv3_1"
  top: "conv3_1"
}
layer {
  name: "conv3_2"
  type: "Convolution"
  bottom: "conv3_1"
  top: "conv3_2"
  param {
    lr_mult: 0
    decay_mult: 0
  }
  param {
    lr_mult: 0
    decay_mult: 0
  }
  convolution_param {
    num_output: 256
    pad: 1
    kernel_size: 3
  }
}
layer {
  name: "relu3_2"
  type: "ReLU"
  bottom: "conv3_2"
  top: "conv3_2"
}
layer {
  name: "conv3_3"
  type: "Convolution"
  bottom: "conv3_2"
  top: "conv3_3"
  param {
    lr_mult: 0
    decay_mult: 0
  }
  param {
    lr_mult: 0
    decay_mult: 0
  }
  convolution_param {
    num_output: 256
    pad: 1
    kernel_size: 3
  }
}
layer {
  name: "relu3_3"
  type: "ReLU"
  bottom: "conv3_3"
  top: "conv3_3"
}
layer {
  name: "pool3"
  type: "Pooling"
  bottom: "conv3_3"
  top: "pool3"
  pooling_param {
    pool: MAX
    kernel_size: 2
    stride: 2
  }
}
layer {
  name: "conv4_1"
  type: "Convolution"
  bottom: "pool3"
  top: "conv4_1"
  param {
    lr_mult: 0
    decay_mult: 0
  }
  param {
    lr_mult: 0
    decay_mult: 0
  }
  convolution_param {
    num_output: 512
    pad: 1
    kernel_size: 3
  }
}
layer {
  name: "relu4_1"
  type: "ReLU"
  bottom: "conv4_1"
  top: "conv4_1"
}
layer {
  name: "conv4_2"
  type: "Convolution"
  bottom: "conv4_1"
  top: "conv4_2"
  param {
    lr_mult: 0
    decay_mult: 0
  }
  param {
    lr_mult: 0
    decay_mult: 0
  }
  convolution_param {
    num_output: 512
    pad: 1
    kernel_size: 3
  }
}
layer {
  name: "relu4_2"
  type: "ReLU"
  bottom: "conv4_2"
  top: "conv4_2"
}
layer {
  name: "conv4_3"
  type: "Convolution"
  bottom: "conv4_2"
  top: "conv4_3"
  param {
    lr_mult: 0
    decay_mult: 0
  }
  param {
    lr_mult: 0
    decay_mult: 0
  }
  convolution_param {
    num_output: 512
    pad: 1
    kernel_size: 3
  }
}
layer {
  name: "relu4_3"
  type: "ReLU"
  bottom: "conv4_3"
  top: "conv4_3"
}
layer {
  name: "pool4"
  type: "Pooling"
  bottom: "conv4_3"
  top: "pool4"
  pooling_param {
    pool: MAX
    kernel_size: 2
    stride: 2
  }
}
layer {
  name: "conv5_1"
  type: "Convolution"
  bottom: "pool4"
  top: "conv5_1"
  param {
    lr_mult: 0
    decay_mult: 0
  }
  param {
    lr_mult: 0
    decay_mult: 0
  }
  convolution_param {
    num_output: 512
    pad: 1
    kernel_size: 3
  }
}
layer {
  name: "relu5_1"
  type: "ReLU"
  bottom: "conv5_1"
  top: "conv5_1"
}
layer {
  name: "conv5_2"
  type: "Convolution"
  bottom: "conv5_1"
  top: "conv5_2"
  param {
    lr_mult: 0
    decay_mult: 0
  }
  param {
    lr_mult: 0
    decay_mult: 0
  }
  convolution_param {
    num_output: 512
    pad: 1
    kernel_size: 3
  }
}
layer {
  name: "relu5_2"
  type: "ReLU"
  bottom: "conv5_2"
  top: "conv5_2"
}
layer {
  name: "conv5_3"
  type: "Convolution"
  bottom: "conv5_2"
  top: "conv5_3"
  param {
    lr_mult: 0
    decay_mult: 0
  }
  param {
    lr_mult: 0
    decay_mult: 0
  }
  convolution_param {
    num_output: 512
    pad: 1
    kernel_size: 3
  }
}
layer {
  name: "relu5_3"
  type: "ReLU"
  bottom: "conv5_3"
  top: "conv5_3"
}
layer {
  name: "roi_pool5"
  type: "ROIPooling"
  bottom: "conv5_3"
  bottom: "sppboxes"
  top: "pool5"
  roi_pooling_param {
    pooled_w: 7
    pooled_h: 7
  }
}
layer {
  name: "fc6"
  type: "InnerProduct"
  bottom: "pool5"
  top: "fc6"
  param {
    lr_mult: 0
    decay_mult: 0
  }
  param {
    lr_mult: 0
    decay_mult: 0
  }
  inner_product_param {
    num_output: 4096
  }
}
layer {
  name: "relu6"
  type: "ReLU"
  bottom: "fc6"
  top: "fc6"
}
layer {
  name: "drop6"
  type: "Dropout"
  bottom: "fc6"
  top: "fc6"
  dropout_param {
    dropout_ratio: 0.5
  }
}
layer {
  name: "fc7"
  type: "InnerProduct"
  bottom: "fc6"
  top: "fc7"
  param {
    lr_mult: 0
    decay_mult: 0
  }
  param {
    lr_mult: 0
    decay_mult: 0
  }
  inner_product_param {
    num_output: 4096
  }
}
layer {
  name: "relu7"
  type: "ReLU"
  bottom: "fc7"
  top: "fc7"
}
layer {
  name: "drop7"
  type: "Dropout"
  bottom: "fc7"
  top: "fc7"
  dropout_param {
    dropout_ratio: 0.5
  }
}
# ####Hypercolumn layers####
layer {
  name: "scale_pool3"
  type: "Scale"
  bottom: "pool3"
  top: "spool3"
  scale_param {
    scale: 0.0027
  }
}
layer {
  name: "scale_pool4"
  type: "Scale"
  bottom: "pool4"
  top: "spool4"
  scale_param {
    scale: 0.063
  }
}
layer {
  name: "conv_pool3" 
  type: "Convolution"
  bottom: "spool3"
  top: "conv_pool3"
  param {
    lr_mult: 1
    decay_mult: 1
  }
  param {
    lr_mult: 2
    decay_mult: 0
  }
  convolution_param {
    num_output: 475
    pad: 1
    kernel_size: 3
    weight_filler {
      type: "gaussian"
      std: 0.01
    }
    bias_filler {
      type: "constant"
      value: 0
    }
  }
}
layer {
  name: "conv_pool4" 
  type: "Convolution"
  bottom: "spool4"
  top: "conv_pool4"
  param {
    lr_mult: 1
    decay_mult: 1
  }
  param {
    lr_mult: 2
    decay_mult: 0
  }
  convolution_param {
    num_output: 475
    pad: 0
    kernel_size: 1
    weight_filler {
      type: "gaussian"
      std: 0.01
    }
    bias_filler {
      type: "constant"
      value: 0
    }
  }
}
layer {
  name: "fcfc7" 
  type: "InnerProduct"
  bottom: "fc7"
  top: "fcfc7"
  param {
    lr_mult: 1
    decay_mult: 1
  }
  param {
    lr_mult: 2
    decay_mult: 0
  }
  inner_product_param {
    num_output: 475
    weight_filler {
      type: "gaussian"
      std: 0.01
    }
    bias_filler {
      type: "constant"
      value: 0
    }
  }
}
layer {
  name: "ups_pool3"
  type: "BoxUpsample"
  bottom: "conv_pool3"
  bottom: "normalizedboxes"
  top: "ups_pool3"
  box_upsample_param {
    width: 50
    height: 50
    channels: 25
  }
}
layer {
  name: "ups_pool4"
  type: "BoxUpsample"
  bottom: "conv_pool4"
  bottom: "normalizedboxes"
  top: "ups_pool4"
  box_upsample_param {
    width: 50
    height: 50
    channels: 25
  }
}
layer {
  name: "slice_fc7"
  type: "PickSlice"
  bottom: "fcfc7"
  bottom: "categids"
  top: "fcfc7out"
  pick_slice_param {
    channels: 25
  }
}
layer {
  name: "repmat"
  type: "RepMat"
  bottom: "fcfc7out"
  top: "ups_fc7"
  repmat_param{
    rep_n: 1
    rep_c: 1
    rep_w: 50
    rep_h: 50
  }
}
layer {
  name: "sum"
  type: "Sum"
  bottom: "ups_pool3"
  bottom: "ups_pool4"
  bottom: "ups_fc7"
  top: "sum"
}
layer {
  name: "da_conv1"
  type: "Convolution"
  bottom: "da_image"
  top: "da_conv1"
  param {
    lr_mult: 0
    decay_mult: 0
  }
  param {
    lr_mult: 0.
    decay_mult: 0
  }
  convolution_param {
    num_output: 96
    kernel_size: 11
    pad: 5
    stride: 4
  }
}
layer {
  name: "da_relu1"
  type: "ReLU"
  bottom: "da_conv1"
  top: "da_conv1"
}
layer {
  name: "da_pool1"
  type: "Pooling"
  bottom: "da_conv1"
  top: "da_pool1"
  pooling_param {
    pool: MAX
    kernel_size: 3
    pad: 1
    stride: 2
  }
}
layer {
  name: "da_norm1"
  type: "LRN"
  bottom: "da_pool1"
  top: "da_norm1"
  lrn_param {
    local_size: 5
    alpha: 0.0001
    beta: 0.75
  }
}
layer {
  name: "da_conv2"
  type: "Convolution"
  bottom: "da_norm1"
  top: "da_conv2"
  param {
    lr_mult: 0
    decay_mult: 0
  }
  param {
    lr_mult: 0.
    decay_mult: 0
  }
  convolution_param {
    num_output: 256
    kernel_size: 5
    pad: 2
    group: 2
  }
}
layer {
  name: "da_relu2"
  type: "ReLU"
  bottom: "da_conv2"
  top: "da_conv2"
}
layer {
  name: "da_pool2"
  type: "Pooling"
  bottom: "da_conv2"
  top: "da_pool2"
  pooling_param {
    pool: MAX
    kernel_size: 3
    pad: 1
    stride: 2
  }
}
layer {
  name: "da_norm2"
  type: "LRN"
  bottom: "da_pool2"
  top: "da_norm2"
  lrn_param {
    local_size: 5
    alpha: 0.0001
    beta: 0.75
  }
}
layer {
  name: "da_conv3"
  type: "Convolution"
  bottom: "da_norm2"
  top: "da_conv3"
  param {
    lr_mult: 0
    decay_mult: 0
  }
  param {
    lr_mult: 0.
    decay_mult: 0
  }
  convolution_param {
    num_output: 384
    kernel_size: 3
    pad: 1
  }
}
layer {
  name: "da_relu3"
  type: "ReLU"
  bottom: "da_conv3"
  top: "da_conv3"
}
layer {
  name: "da_conv4"
  type: "Convolution"
  bottom: "da_conv3"
  top: "da_conv4"
  param {
    lr_mult: 0
    decay_mult: 0
  }
  param {
    lr_mult: 0.
    decay_mult: 0
  }
  convolution_param {
    num_output: 384
    kernel_size: 3
    pad: 1
    group: 2
  }
}
layer {
  name: "da_relu4"
  type: "ReLU"
  bottom: "da_conv4"
  top: "da_conv4"
}
layer {
  name: "da_conv5"
  type: "Convolution"
  bottom: "da_conv4"
  top: "da_conv5"
  param {
    lr_mult: 0
    decay_mult: 0
  }
  param {
    lr_mult: 0.
    decay_mult: 0
  }
  convolution_param {
    num_output: 256
    kernel_size: 3
    pad: 1
    group: 2
  }
}
layer {
  name: "da_relu5"
  type: "ReLU"
  bottom: "da_conv5"
  top: "da_conv5"
}

layer {
  name: "da_roi_pool5"
  type: "ROIPooling"
  bottom: "da_conv5"
  bottom: "sppboxes"
  top: "da_pool5"
  roi_pooling_param {
    pooled_w: 6
    pooled_h: 6
  }
}

layer {
  name: "da_fc6" type: "InnerProduct" bottom: "da_pool5" top: "da_fc6"
  param { lr_mult: 1 decay_mult: 1 }
  param { lr_mult: 2 decay_mult: 0 }
  inner_product_param { num_output: 4096 }
}
layer {
  name: "da_relu6" type: "ReLU" bottom: "da_fc6" top: "da_fc6"
}
layer {
  name: "da_drop6" type: "Dropout" bottom: "da_fc6" top: "da_fc6"
  dropout_param { dropout_ratio: 0.5 }
}

layer {
  name: "da_fc7" type: "InnerProduct" bottom: "da_fc6" top: "da_fc7"
  param { lr_mult: 1 decay_mult: 1 }
  param { lr_mult: 2 decay_mult: 0 }
  inner_product_param { num_output: 4096 }
}
layer {
  name: "da_relu7" type: "ReLU" bottom: "da_fc7" top: "da_fc7"
}

layer {
  name: "da_drop7" type: "Dropout" bottom: "da_fc7" top: "da_fc7"
  dropout_param { dropout_ratio: 0.5 }
}

# ####Hypercolumn layers####
layer {
  name: "da_scale_pool2"
  type: "Scale"
  bottom: "da_pool2"
  top: "da_spool2"
  scale_param {
    scale: 0.0074
  }
}
layer {
  name: "da_scale_conv4"
  type: "Scale"
  bottom: "da_conv4"
  top: "da_sconv4"
  scale_param {
    scale: 0.0909
  }
}
layer {
  name: "da_conv_pool2" 
  type: "Convolution"
  bottom: "da_spool2"
  top: "da_conv_pool2"
  param {
    lr_mult: 1
    decay_mult: 1
  }
  param {
    lr_mult: 2
    decay_mult: 0
  }
  convolution_param {
    num_output: 475
    pad: 1
    kernel_size: 3
    weight_filler {
      type: "gaussian"
      std: 0.01
    }
    bias_filler {
      type: "constant"
      value: 0
    }
  }
}
layer {
  name: "da_conv_conv4" 
  type: "Convolution"
  bottom: "da_sconv4"
  top: "da_conv_conv4"
  param {
    lr_mult: 1
    decay_mult: 1
  }
  param {
    lr_mult: 2
    decay_mult: 0
  }
  convolution_param {
    num_output: 475
    pad: 0
    kernel_size: 1
    weight_filler {
      type: "gaussian"
      std: 0.01
    }
    bias_filler {
      type: "constant"
      value: 0
    }
  }
}
layer {
  name: "da_fcfc7" 
  type: "InnerProduct"
  bottom: "da_fc7"
  top: "da_fcfc7"
  param {
    lr_mult: 1
    decay_mult: 1
  }
  param {
    lr_mult: 2
    decay_mult: 0
  }
  inner_product_param {
    num_output: 475
    weight_filler {
      type: "gaussian"
      std: 0.01
    }
    bias_filler {
      type: "constant"
      value: 0
    }
  }
}
layer {
  name: "da_ups_pool2"
  type: "BoxUpsample"
  bottom: "da_conv_pool2"
  bottom: "normalizedboxes"
  top: "da_ups_pool2"
  box_upsample_param {
    width: 50
    height: 50
    channels: 25
  }
}
layer {
  name: "da_ups_conv4"
  type: "BoxUpsample"
  bottom: "da_conv_conv4"
  bottom: "normalizedboxes"
  top: "da_ups_conv4"
  box_upsample_param {
    width: 50
    height: 50
    channels: 25
  }
}
layer {
  name: "da_slice_fc7"
  type: "PickSlice"
  bottom: "da_fcfc7"
  bottom: "categids"
  top: "da_fcfc7out"
  pick_slice_param {
    channels: 25
  }
}
layer {
  name: "da_repmat"
  type: "RepMat"
  bottom: "da_fcfc7out"
  top: "da_ups_fc7"
  repmat_param{
    rep_n: 1
    rep_c: 1
    rep_w: 50
    rep_h: 50
  }
}
layer {
  name: "da_sum"
  type: "Sum"
  bottom: "da_ups_pool2"
  bottom: "da_ups_conv4"
  bottom: "da_ups_fc7"
  top: "da_sum"
}

## combine sum
# layer {
#   name: "fusion_sum"
#   type: "Eltwise"
#   bottom: "sum"
#   bottom: "da_sum"
#   top: "fusion_sum"
#   eltwise_param {
#     coeff: 0.5
#     coeff: 0.5
#   }
# }
# layer {
#   name: "grid"
#   type: "LocallyConnected"
#   bottom: "fusion_sum"
#   top: "loss"
#   local_layer_param {
#     grid_size: 5
#     pos_loss_wt: 1
#     neg_loss_wt: 1
#   }
# }

## combine loss
layer {
  name: "grid"
  type: "LocallyConnected"
  bottom: "sum"
  top: "loss"
  local_layer_param {
    grid_size: 5
    pos_loss_wt: 1
    neg_loss_wt: 1
  }
}
layer {
  name: "da_grid"
  type: "LocallyConnected"
  bottom: "da_sum"
  top: "da_loss"
  local_layer_param {
    grid_size: 5
    pos_loss_wt: 1
    neg_loss_wt: 1
  }
}

layer {
  name: "fusion_loss"
  type: "Eltwise"
  bottom: "loss"
  bottom: "da_loss"
  top: "fusion_loss"
  eltwise_param {
    coeff: 0.5
    coeff: 0.5
    operation: SUM
  }
}

# layer {
#   name: "fusion_loss"
#   type: "Eltwise"
#   bottom: "loss"
#   bottom: "da_loss"
#   top: "fusion_loss_prod"
#   eltwise_param {
#     operation: PROD
#   }
# }
# 
